weights_TrainableMLP.pth (torch, 35338 bytes, 5 tensors)

hidden1.weight f4 [16, 500]
-0.030160902 0.41408464 0.45769292 -0.07909004 0.41894615 0.8668482 -0.44097286 -0.86688995
-0.2041302 -0.65427685 -1.0857799 0.393097 0.6837313 0.6855899 -0.700428 -0.17196527
0.018669909 -0.660096 0.34550104 0.46683526 -0.8770327 0.0138766505 -0.092258245 -0.011471712
-0.96634173 -0.90797603 0.17488001 -0.10779728 0.9097238 0.72319895 0.8571895 0.5178539
-0.34792846 -0.9729536 0.2771418 0.53577256 -0.050896578 0.2578978 -0.8128992 -0.31361002
0.5156392 0.28528535 0.48939568 -0.9392325 -0.2285969 0.036130466 -0.12278312 -0.8165779
-0.23664705 0.50847 0.44566262 0.34484333 -0.30357596 0.07377803 -0.34562185 -0.77046937
-0.3635343 -0.6252364 0.6920431 0.0071497336 -0.8771608 -0.8252662 -0.049231943 0.24607977
-0.71636045 0.6750827 0.6161479 -0.5841538 -0.19290222 0.5463414 0.088932626 -0.65254205
-0.76108676 0.56355935 -0.94127434 0.55832565 -0.14337611 0.36334023 -0.10949171 0.080571786
0.6238059 0.25157705 0.8883175 0.09610274 -0.080968164 0.17876126 0.46010005 -0.21700805
-0.072658874 -0.14877035 -0.6068921 -0.7295744 0.56239545 0.77469754 -0.82640994 0.55095863
0.5096764 0.33875015 0.86152345 0.5149947 0.8502872 -0.7777854 -0.95896757 0.57963103
0.507124 0.47328442 -0.18944557 -0.59861666 -0.8366614 0.9185851 0.13310204 -0.48615348
-0.23149218 -0.88442785 -0.6869007 -1.0259252 0.27084976 0.9191208 0.6347913 -0.56806976
-0.29062316 0.23266225 0.7686745 0.92125446 -0.0064510144 0.4101631 -0.47430882 0.7257535
0.6906921 0.6853224 -0.43607634 0.046794694 -0.15126523 -0.90935606 -0.6010494 -0.9729096
-0.55038327 -0.067635015 -0.8628977 -0.77012277 -0.6543067 -1.0039431 -0.8851034 -0.5673551
-0.095148705 0.79365635 0.7513333 0.9502311 0.107967086 -0.04957982 -0.16383514 -0.55650777
-0.9553169 -0.5202453 0.7103531 -0.13992958 0.4978698 0.20188294 0.5495571 0.19775502
-0.3773241 -0.3416589 0.8740065 -1.0117756 0.17486958 0.762601 0.4083282 0.6637183
0.4941945 -0.46895406 -0.77998334 0.61772877 0.34676346 -0.93102044 0.27443644 -0.88693315
0.8565252 -0.027863648 0.48549753 -0.9994652 -0.3104724 0.44084924 -0.2501245 0.677475
-0.15963812 -0.3459229 0.30275863 -0.3702968 -0.6079618 0.36603442 -0.9841949 -0.79072493
-0.95714486 0.39326283 0.69610685 0.83874625 0.373859 0.59782535 -0.62827665 0.14706655
0.5637062 -0.08174896 -0.90699995 0.8571005 -0.4778913 -0.73244226 0.06710937 0.81994605
-0.35655838 -0.45491153 0.36541027 -0.22761256 0.44835946 0.42309713 0.05016268 0.027920786
0.27156928 -0.6994637 0.8026236 0.5793751 -0.51903653 -0.63396263 -0.50889176 -0.5936403
0.24474142 0.90250283 0.046270877 -0.31075177 -0.8154421 1.0204105 0.52827334 0.7566927
0.89757544 0.5527266 -0.033321932 0.056456063 -0.21484905 -0.6285296 -0.8075593 0.40387943
0.2906193 0.093578026 0.9199242 -0.39425686 0.35651398 -0.53129584 -0.65631896 -0.22769955
-0.16924368 -0.5097536 -0.061350457 -0.14700902 0.14646702 -0.36707318 -0.29674518 -0.9094662
00000000: ff13 f7bc e702 d43e ba56 ea3e f5f9 a1bd
00000010: 1c80 d63e c3e9 5d3f 32c7 e1be 80ec 5dbf
00000020: 8207 51be b07e 27bf d6fa 8abf 0344 c93e
00000030: 0409 2f3f d282 2f3f 404f 33bf aa17 30be
00000040: a3f1 983c 0dfc 28bf 83e5 b03e 0805 ef3e
00000050: 3785 60bf e45a 633c e4f1 bcbd d9f3 3bbc
00000060: 2c62 77bf 1e71 68bf bf13 333e d2c4 dcbd
00000070: a9e3 683f 9123 393f c570 5b3f 1392 043f
00000080: ae23 b2be 7d13 79bf 88e5 8d3e 6428 093f
00000090: ee78 50bd 2e0b 843e 291a 50bf 7e91 a0be
000000a0: ee00 043f ec10 923e 1292 fa3e 8b71 70bf
000000b0: 4e15 6abe 8afd 133d b775 fbbd 400b 51bf
000000c0: 9b53 72be 172b 023f e42d e43e 4e8f b03e
000000d0: 4f6e 9bbe f018 973d 59f5 b0be 7b3d 45bf
000000e0: 2b21 babe 7e0f 20bf bd29 313f 5048 ea3b
000000f0: 9c8d 60bf a544 53bf 6fa7 49bd 56fc 7b3e
00000100: 6663 37bf 38d2 2c3f debb 1d3f 1a8b 15bf
00000110: 2988 45be 08dd 0b3f 4f22 b63d ff0c 27bf
00000120: 95d6 42bf 6d45 103f 5bf7 70bf 6eee 0e3f
00000130: 30d1 12be bb07 ba3e 313d e0bd d202 a53d
00000140: beb1 1f3f b5ce 803e c768 633f 83d1 c43d
00000150: a3d2 a5bd 310d 373e 3c92 eb3e 5c37 5ebe
00000160: 2dce 94bd 4157 18be 485d 1bbf 63c5 3abf
00000170: 26f9 0f3f 9452 463f 9a8f 53bf a00b 0d3f
00000180: 277a 023f a970 ad3e cd8c 5c3f b1d6 033f
00000190: 6cac 593f f21c 47bf e67e 75bf b362 143f
000001a0: e1d2 013f 5652 f23e 05fe 41be f13e 19bf
000001b0: 712f 56bf 6528 6b3f e74b 083e 1ce9 f8be
000001c0: 490c 6dbe dd69 62bf b9d8 2fbf 8451 83bf
000001d0: d2ac 8a3e 804b 6b3f af81 223f 056d 11bf
000001e0: 8fcc 94be 033f 6e3e dac7 443f 55d7 6b3f
000001f0: 0863 d3bb e600 d23e 9bd8 f2be fbca 393f
00000200: 33d1 303f 4a71 2f3f 6645 dfbe cbab 3f3d
00000210: 46e5 1abe 8fcb 68bf 60de 19bf 9b10 79bf
00000220: ebe5 0cbf 3a84 8abd dde6 5cbf c426 45bf
00000230: a580 27bf 3581 80bf 2396 62bf 2f3e 11bf
00000240: 53dd c2bd 102d 4b3f 6157 403f 5842 733f
00000250: d91d dd3d 3614 4bbd 66c4 27be 4b77 0ebf
00000260: a68f 74bf cc2e 05bf b3d9 353f b349 0fbe
00000270: cae8 fe3e 67ba 4e3e c6af 0c3f 4b80 4a3e
00000280: a030 c1be eaed aebe e4be 5f3f dd81 81bf
00000290: 0311 333e d239 433f 6510 d13e 71e9 293f
000002a0: 1007 fd3e bf1a f0be fdac 47bf 7923 1e3f
000002b0: fb8a b13e 5b57 6ebf ef82 8c3e 0d0e 63bf
000002c0: 3c45 5b3f 4e42 e4bc 2293 f83e f4dc 7fbf
000002d0: 3df6 9ebe feb6 e13e 5210 80be 006f 2d3f
000002e0: 2d78 23be ce1c b1be 2e03 9b3e 8b97 bdbe
000002f0: 62a3 1bbf dd68 bb3e 32f4 7bbf f36c 4abf
00000300: 7207 75bf bf59 c93e 0f34 323f 13b8 563f
00000310: 726a bf3e 150b 193f bdd6 20bf 9d98 163e
00000320: 0d4f 103f 006c a7bd 2631 68bf f06a 5b3f
00000330: 2bae f4be 5681 3bbf a370 893d fce7 513f
00000340: d28e b6be 2aea e8be 0e17 bb3e 4413 69be
00000350: 5f8f e53e 30a0 d83e 6277 4d3d 22ba e43c
00000360: 210b 8b3e 0e10 33bf be78 4d3f ed51 143f
00000370: 94df 04bf 604b 22bf bb46 02bf d0f8 17bf
00000380: 7f9d 7a3e 6d0a 673f 8886 3d3d db1a 9fbe
00000390: d0c0 50bf d09c 823f ec3c 073f 9db6 413f
000003a0: 81c7 653f 7e7f 0d3f 947c 08bd 793e 673d
000003b0: 6401 5cbe 51e7 20bf 35bc 4ebf 49c9 ce3e
000003c0: 0ecc 943e d6a5 bf3d 2780 6b3f 09dc c9be
000003d0: 0089 b63e 0103 08bf 8504 28bf 122a 69be
000003e0: 374e 2dbe 367f 02bf 9e4a 7bbd 8889 16be
000003f0: 73fb 153e 04f1 bbbe fcee 97be c7d2 68bf

hidden1.bias f4 [16]
3.8146858 -3.9533844 0.8922923 3.534414 0.78048384 -2.4895701 5.1654716 -1.6903664
0.82702607 -2.193534 -5.5497932 -1.8704127 -2.0475643 -2.6829042 2.5787368 -0.21876933
00000000: d023 7440 4004 7dc0 456d 643f d733 6240
00000010: cacd 473f 1e55 1fc0 8b4b a540 ed5d d8bf
00000020: fbb7 533f dc62 0cc0 e897 b1c0 af69 efbf
00000030: 4b0b 03c0 b4b4 2bc0 060a 2540 1105 60be

hidden2.weight f4 [8, 16]
-3.0114913 -0.99205786 -1.9949257 -1.4139574 -1.7215372 -0.3365157 -1.2041879 0.43386552
-1.8471465 -1.2941849 -1.6289108 -0.8938496 -0.61688256 0.35340858 -1.2367557 -0.18664995
0.22109056 -0.40323916 0.378583 0.6127809 0.019744754 0.07169094 -0.39413056 -0.27804446
0.7287364 -1.0216068 0.9644563 0.5333665 0.31826138 -1.016377 -0.4702113 0.37856334
0.75916284 0.08435163 0.6956967 0.4154304 1.0731043 0.25069872 -0.36301813 0.960868
0.7676859 1.3595364 0.288968 0.13037714 0.7828772 0.27839082 0.9141851 1.0221983
0.56467336 -0.6824948 0.9004401 -0.093989916 1.2440139 0.41831765 4.369722 0.5809821
-0.3718336 -0.04142622 -1.126008 1.2521585 0.17556576 1.3147207 0.4684022 0.6712074
2.4149423 0.05956436 0.6593018 -0.31888303 1.1912719 0.5090543 1.3598996 1.6542352
0.46976194 0.77529365 -0.042064756 -0.32636046 -0.5224888 0.8227978 0.15607226 0.4268492
1.0437757 0.87300086 1.2802428 1.1674703 0.47469652 0.22332153 1.0277267 -0.7183204
0.31888732 0.9236148 0.85915375 0.43343714 1.2002082 0.32489035 1.5990417 -0.06326091
0.42998156 -0.90039223 0.4830872 0.9091844 0.6731003 -0.55658984 1.500568 0.23203327
1.1342664 0.4422611 -0.965346 0.860094 0.1240821 0.39023778 0.5371495 -0.8922244
1.6643234 -0.624364 -0.17110786 0.7175472 0.37038627 -0.49976355 3.2999413 1.6214174
0.61037225 0.33439296 -0.07755301 0.72260827 -0.06072147 -0.5613718 -0.47258946 0.699899
00000000: 46bc 40c0 81f7 7dbf ba59 ffbf 8efc b4bf
00000010: 555b dcbf c94b acbe d422 9abf 9f23 de3e
00000020: 4c6f ecbf daa7 a5bf 2680 d0bf 54d3 64bf
00000030: 04ec 1dbf f8f1 b43e 034e 9ebf 2a21 3fbe
00000040: 9065 623e 5d75 cebe a2d5 c13e 36df 1c3f
00000050: c0bf a13c b3d2 923d 7bcb c9be d85b 8ebe
00000060: 788e 3a3f 03c4 82bf 9ce6 763f b58a 083f
00000070: 28f3 a23e a418 82bf 89bf f0be 0ed3 c13e
00000080: 7f58 423f 8cc0 ac3d 2e19 323f 4bb3 d43e
00000090: 7b5b 893f 955b 803e 83dd b9be 72fb 753f
000000a0: 1087 443f 4a05 ae3f 9df3 933e 9681 053e
000000b0: a46a 483f 3e89 8e3e 0908 6a3f 65d7 823f
000000c0: 6f8e 103f fbb7 2ebf 3e83 663f c97d c0bd
000000d0: d93b 9f3f bb2d d63e c3d4 8b40 3ebb 143f
000000e0: f960 bebe 8aae 29bd 0821 90bf bb46 a03f
000000f0: 83c7 333e c548 a83f 6ad2 ef3e 40d4 2b3f
00000100: 6a8e 1a40 c2f9 733d 01c8 283f a344 a3be
00000110: 997b 983f 6251 023f 3111 ae3f fbbd d33f
00000120: a384 f03e a579 463f 184c 2cbd b818 a7be
00000130: d3c1 05bf e0a2 523f 68d1 1f3e fa8b da3e
00000140: 719a 853f fc7c 5f3f ffde a33f ab6f 953f
00000150: 6c0b f33e 66ae 643e 8c8c 833f d9e3 37bf
00000160: 3345 a33e 0572 6c3f 80f1 5b3f 79eb dd3e
00000170: 6ca0 993f 0758 a63e 66ad cc3f f08e 81bd
00000180: 8b26 dc3e 1b80 66bf 3557 f73e 4fc0 683f
00000190: 4d50 2c3f ac7c 0ebf 9d12 c03f 219a 6d3e
000001a0: a42f 913f 0c70 e23e ea20 77bf 1f2f 5c3f
000001b0: c21e fe3d 3fcd c73e a182 093f d168 64bf
000001c0: 8d08 d53f 52d6 1fbf e636 2fbe 2cb1 373f
000001d0: 45a3 bd3e 02e1 ffbe 3d32 5340 9b8a cf3f
000001e0: 5b41 1c3f 8e35 ab3e 1dd4 9ebd dbfc 383f
000001f0: 13b7 78bd 10b6 0fbf 3ff7 f1be 952c 333f

hidden2.bias f4 [8]
-0.035629123 -0.3149668 1.5172268 0.26132223 0.61292416 0.613826 -0.8482352 1.1025679
00000000: d8ef 11bd 5443 a1be 7d34 c23f 07cc 853e
00000010: 99e8 1c3f b323 1d3f f125 59bf f220 8d3f

output.weight f4 [1, 8]
0.07439063 0.11364884 0.5911269 -0.74712855 -0.62607116 0.97776246 -0.7048294 -0.23503758
00000000: 1d5a 983d b9c0 e83d 1854 173f d143 3fbf
00000010: 3346 20bf a44e 7a3f b36f 34bf b1ad 70be
